…
Global rank 4 initialized: local_rank = 4, world_size = 8
Global rank 5 initialized: local_rank = 5, world_size = 8
Global rank 6 initialized: local_rank = 6, world_size = 8
Global rank 7 initialized: local_rank = 7, world_size = 8
Files already downloaded and verified
Files already downloaded and verified
==========================================================================================
Layer (type:depth-idx)                   Output Shape              Param #
==========================================================================================
ResNet                                   [128, 10]                 --
├─Conv2d: 1-1                            [128, 16, 32, 32]         432
├─BatchNorm2d: 1-2                       [128, 16, 32, 32]         32
├─Sequential: 1-3                        [128, 16, 32, 32]         --
│    └─BasicBlock: 2-1                   [128, 16, 32, 32]         --
│    │    └─Conv2d: 3-1                  [128, 16, 32, 32]         2,304
│    │    └─BatchNorm2d: 3-2             [128, 16, 32, 32]         32
│    │    └─Conv2d: 3-3                  [128, 16, 32, 32]         2,304
│    │    └─BatchNorm2d: 3-4             [128, 16, 32, 32]         32
│    │    └─Sequential: 3-5              [128, 16, 32, 32]         --
│    └─BasicBlock: 2-2                   [128, 16, 32, 32]         --
│    │    └─Conv2d: 3-6                  [128, 16, 32, 32]         2,304
│    │    └─BatchNorm2d: 3-7             [128, 16, 32, 32]         32
│    │    └─Conv2d: 3-8                  [128, 16, 32, 32]         2,304
│    │    └─BatchNorm2d: 3-9             [128, 16, 32, 32]         32
│    │    └─Sequential: 3-10             [128, 16, 32, 32]         --
│    └─BasicBlock: 2-3                   [128, 16, 32, 32]         --
│    │    └─Conv2d: 3-11                 [128, 16, 32, 32]         2,304
│    │    └─BatchNorm2d: 3-12            [128, 16, 32, 32]         32
│    │    └─Conv2d: 3-13                 [128, 16, 32, 32]         2,304
│    │    └─BatchNorm2d: 3-14            [128, 16, 32, 32]         32
│    │    └─Sequential: 3-15             [128, 16, 32, 32]         --
│    └─BasicBlock: 2-4                   [128, 16, 32, 32]         --
│    │    └─Conv2d: 3-16                 [128, 16, 32, 32]         2,304
│    │    └─BatchNorm2d: 3-17            [128, 16, 32, 32]         32
│    │    └─Conv2d: 3-18                 [128, 16, 32, 32]         2,304
│    │    └─BatchNorm2d: 3-19            [128, 16, 32, 32]         32
│    │    └─Sequential: 3-20             [128, 16, 32, 32]         --
│    └─BasicBlock: 2-5                   [128, 16, 32, 32]         --
│    │    └─Conv2d: 3-21                 [128, 16, 32, 32]         2,304
│    │    └─BatchNorm2d: 3-22            [128, 16, 32, 32]         32
│    │    └─Conv2d: 3-23                 [128, 16, 32, 32]         2,304
│    │    └─BatchNorm2d: 3-24            [128, 16, 32, 32]         32
│    │    └─Sequential: 3-25             [128, 16, 32, 32]         --
├─Sequential: 1-4                        [128, 32, 16, 16]         --
│    └─BasicBlock: 2-6                   [128, 32, 16, 16]         --
│    │    └─Conv2d: 3-26                 [128, 32, 16, 16]         4,608
│    │    └─BatchNorm2d: 3-27            [128, 32, 16, 16]         64
│    │    └─Conv2d: 3-28                 [128, 32, 16, 16]         9,216
│    │    └─BatchNorm2d: 3-29            [128, 32, 16, 16]         64
│    │    └─LambdaLayer: 3-30            [128, 32, 16, 16]         --
│    └─BasicBlock: 2-7                   [128, 32, 16, 16]         --
│    │    └─Conv2d: 3-31                 [128, 32, 16, 16]         9,216
│    │    └─BatchNorm2d: 3-32            [128, 32, 16, 16]         64
│    │    └─Conv2d: 3-33                 [128, 32, 16, 16]         9,216
│    │    └─BatchNorm2d: 3-34            [128, 32, 16, 16]         64
│    │    └─Sequential: 3-35             [128, 32, 16, 16]         --
│    └─BasicBlock: 2-8                   [128, 32, 16, 16]         --
│    │    └─Conv2d: 3-36                 [128, 32, 16, 16]         9,216
│    │    └─BatchNorm2d: 3-37            [128, 32, 16, 16]         64
│    │    └─Conv2d: 3-38                 [128, 32, 16, 16]         9,216
│    │    └─BatchNorm2d: 3-39            [128, 32, 16, 16]         64
│    │    └─Sequential: 3-40             [128, 32, 16, 16]         --
│    └─BasicBlock: 2-9                   [128, 32, 16, 16]         --
│    │    └─Conv2d: 3-41                 [128, 32, 16, 16]         9,216
│    │    └─BatchNorm2d: 3-42            [128, 32, 16, 16]         64
│    │    └─Conv2d: 3-43                 [128, 32, 16, 16]         9,216
│    │    └─BatchNorm2d: 3-44            [128, 32, 16, 16]         64
│    │    └─Sequential: 3-45             [128, 32, 16, 16]         --
│    └─BasicBlock: 2-10                  [128, 32, 16, 16]         --
│    │    └─Conv2d: 3-46                 [128, 32, 16, 16]         9,216
│    │    └─BatchNorm2d: 3-47            [128, 32, 16, 16]         64
│    │    └─Conv2d: 3-48                 [128, 32, 16, 16]         9,216
│    │    └─BatchNorm2d: 3-49            [128, 32, 16, 16]         64
│    │    └─Sequential: 3-50             [128, 32, 16, 16]         --
├─Sequential: 1-5                        [128, 64, 8, 8]           --
│    └─BasicBlock: 2-11                  [128, 64, 8, 8]           --
│    │    └─Conv2d: 3-51                 [128, 64, 8, 8]           18,432
│    │    └─BatchNorm2d: 3-52            [128, 64, 8, 8]           128
│    │    └─Conv2d: 3-53                 [128, 64, 8, 8]           36,864
│    │    └─BatchNorm2d: 3-54            [128, 64, 8, 8]           128
│    │    └─LambdaLayer: 3-55            [128, 64, 8, 8]           --
│    └─BasicBlock: 2-12                  [128, 64, 8, 8]           --
│    │    └─Conv2d: 3-56                 [128, 64, 8, 8]           36,864
│    │    └─BatchNorm2d: 3-57            [128, 64, 8, 8]           128
│    │    └─Conv2d: 3-58                 [128, 64, 8, 8]           36,864
│    │    └─BatchNorm2d: 3-59            [128, 64, 8, 8]           128
│    │    └─Sequential: 3-60             [128, 64, 8, 8]           --
│    └─BasicBlock: 2-13                  [128, 64, 8, 8]           --
│    │    └─Conv2d: 3-61                 [128, 64, 8, 8]           36,864
│    │    └─BatchNorm2d: 3-62            [128, 64, 8, 8]           128
│    │    └─Conv2d: 3-63                 [128, 64, 8, 8]           36,864
│    │    └─BatchNorm2d: 3-64            [128, 64, 8, 8]           128
│    │    └─Sequential: 3-65             [128, 64, 8, 8]           --
│    └─BasicBlock: 2-14                  [128, 64, 8, 8]           --
│    │    └─Conv2d: 3-66                 [128, 64, 8, 8]           36,864
│    │    └─BatchNorm2d: 3-67            [128, 64, 8, 8]           128
│    │    └─Conv2d: 3-68                 [128, 64, 8, 8]           36,864
│    │    └─BatchNorm2d: 3-69            [128, 64, 8, 8]           128
│    │    └─Sequential: 3-70             [128, 64, 8, 8]           --
│    └─BasicBlock: 2-15                  [128, 64, 8, 8]           --
│    │    └─Conv2d: 3-71                 [128, 64, 8, 8]           36,864
│    │    └─BatchNorm2d: 3-72            [128, 64, 8, 8]           128
│    │    └─Conv2d: 3-73                 [128, 64, 8, 8]           36,864
│    │    └─BatchNorm2d: 3-74            [128, 64, 8, 8]           128
│    │    └─Sequential: 3-75             [128, 64, 8, 8]           --
├─Linear: 1-6                            [128, 10]                 650
==========================================================================================
Total params: 464,154
Trainable params: 464,154
Non-trainable params: 0
Total mult-adds (G): 8.81
==========================================================================================
Input size (MB): 1.57
Forward/backward pass size (MB): 620.77
Params size (MB): 1.86
Estimated Total Size (MB): 624.20
==========================================================================================
…
